web/src/server/model.pth (torch, 410240 bytes, 4 tensors)

weight f4 [128, 784]
00000000: 4452 913d b4e4 a13d 60bc bb3d aa44 9a3d
00000010: df09 e13c 529f 9e3d c89f b43d 8cb7 c13d
00000020: 2ab8 0c3d 518e 8f3d 3f92 443d 1369 d23c
00000030: f444 0d3d 715f 873d 74b6 053d 7442 9f3d
00000040: d2cb 9b3d 710a 423d 9903 1c3d 9da1 8a3d
00000050: 0edf 8f3d d63e 9b3d fcd2 be3d 94b4 b83d
00000060: 4423 b33d fcda af3d c0ef 9b3d 7baf 6b3d
00000070: cdb2 723d fdaf e93c 54fc bc3d 65a1 3a3d
00000080: adcd 713d f15b cb3c de76 a43d e8f0 b03d
00000090: dd03 363d cc4d be3d 3561 513d 3a34 853d
000000a0: 40bc ad3d 533e 4e3d 18c8 803d d4e6 a13d
000000b0: 6b89 fc3c fd4d d03c ec7a b63d 0b30 413d
000000c0: d473 983d 3a13 b83d 3738 903d f66d a93d
000000d0: 9769 523d c35b 263d 6122 813d c5ff 5f3d
000000e0: 2cd0 a13d bde5 743d c57e d03c cd49 833d
000000f0: e308 483d cad5 a23d 91e7 0e3d 170a 263d
00000100: 3af8 963d 04db bc3d 5ecb 9d3d 31c8 943d
00000110: f283 833d 2bf3 943d 311b 593d e8cc c33d
00000120: ff6f 413d 8039 a73d 1d47 1a3d b3be 5e3d
00000130: f339 863d db1a 7e3d b5fa 663d 9c1c 9a3d
00000140: db21 de3c c7c4 963d 75fd 2e3d 351c 6f3d
00000150: dfac 763d 3fd0 6d3d c992 e93c 318b 113d
00000160: a632 b63d e33e 153d bc4c a23d fc74 9a3d
00000170: ce30 c23d 7bc0 3d3d 291e 493d e759 353d
00000180: e13d 533d f337 703d 722f a03d 6f91 533d
00000190: d5f9 933d 0c55 073d c715 543d a367 1b3d
000001a0: af53 223d 86fd bf3d 6af3 853d b514 703d
000001b0: db3e 0c3d 1210 bf3d 7155 cf3c 6e60 b23d
000001c0: b1dc 753d adb7 963d 368f f13c fe1f 9a3d
000001d0: c859 9a3d b66e a23d 788d ae3d 8a71 893d
000001e0: e7b2 433d a4af b43d d7bc 233d 37d4 323d
000001f0: fa1f 5f3d 794a 383d 12a9 403d 1df2 3d3d
00000200: f37e d03c d9ea 983d cab1 883d 2bee 8d3d
00000210: 179b 813d 982f a23d e593 5a3d 0a29 bb3d
00000220: 77eb 1f3d d677 ee3c 4354 633d 480f b93d
00000230: 6370 1b3d e111 1f3d e670 a03d 7650 a03d
00000240: 4e3a 003d f798 443d f4c4 813d b671 ef3c
00000250: d67d 8a3d d911 b73d 2b1d 0a3d 89c2 693d
00000260: 338a b0bd fded d4bc f774 edbc e7c4 c2bd
00000270: 3577 f6bc 1681 75bd f10b 7cbd d75a 03bd
00000280: 129a 633d 36dd 383d 4234 a03d daf7 ba3d
00000290: 30ec a23d 06fb b63d f12b 593d 711b 2d3d
000002a0: 9002 ab3d 7c32 933d ef60 203d 2dc9 413d
000002b0: 53ba 1d3d 87ff 543d dfab a43d 726e d53c
000002c0: ca12 b13d 0713 2f3d 7f46 96bd 1469 37bd
000002d0: 3e9c 03bd 66f6 b9bd d1e6 9abd f464 00bd
000002e0: 5e1a 89bd dcd4 fabc 7147 19bd 16c0 91bd
000002f0: a043 6dbd eed8 9e3d 850e 993d fa79 be3d
00000300: 540f aa3d 0512 683d 1ccb b83d f567 6d3d
00000310: 5ac1 b13d 69b6 963d 555b 1a3d d7e9 033d
00000320: bd47 cb3c 3e92 8c3d 5b96 c03d 209f 8f3d
00000330: 6657 86bd 86e7 5ebd 021a 37bd d2df 11bd
00000340: 464d 92bd 5ec6 a0bd 4520 89bd 8c57 9dbd
00000350: 30a7 c0bd 5fd7 55bd a4bc 93bd c678 38bd
00000360: 5243 a4bd 34ad 42bd 450b bc3d fcea 933d
00000370: 23c8 783d bddc d03c db2c e23c d6fe ba3d
00000380: a15a e63c c636 a33d 1588 1a3d 29f7 183d
00000390: 503d 8a3d a9f5 e73c 81f8 a93d 6fc4 403d
000003a0: 98f4 0abd 2a56 dbbc 4c08 8cbd 3863 acbd
000003b0: 4aef c1bd b4b1 c3bd 8895 80bd 8479 94bd
000003c0: a4ef 94bd 2af4 8dbd 1051 71bd dd0e e2bc
000003d0: d490 c2bd 94ca f8bc 8b3b 63bd c700 8a3d
000003e0: 9b30 f03c 7165 823d 0900 5a3d 3def f03c
000003f0: 4178 3e3d 447b 803d 5aeb a33d 89db eb3c
0.07095769 0.0790495 0.09166789 0.07532628 0.027470527 0.07745232 0.08819538 0.09458837
0.03435532 0.070095666 0.047991034 0.025684869 0.034489587 0.06610001 0.032644704 0.07776347
0.07607235 0.04737324 0.03808937 0.067691065 0.07024966 0.075803444 0.09317586 0.090188175
0.08746961 0.0858669 0.07614088 0.057540398 0.05925255 0.0285263 0.09227815 0.045564074
0.05903404 0.024824115 0.080304846 0.08639699 0.044437278 0.09292182 0.051118094 0.06504102
0.084831715 0.050352406 0.06288165 0.07905355 0.030827245 0.025427813 0.08910164 0.047164958
0.074439675 0.08988042 0.07041972 0.082729265 0.05137023 0.040614855 0.063053854 0.05468728
0.07901034 0.059789408 0.025451073 0.06410561 0.0488366 0.07950933 0.034888808 0.040536966
0.07371564 0.092214614 0.07704805 0.07264746 0.06421651 0.07272943 0.053004447 0.09560567
0.04722595 0.08165264 0.037665475 0.054381084 0.06554022 0.06203733 0.056391437 0.07524988
0.027115753 0.07361751 0.042722184 0.05837651 0.060223456 0.058059927 0.028512375 0.035533134
0.08896379 0.036436927 0.07924792 0.07541844 0.09481965 0.04632614 0.04910103 0.04427519
0.051572684 0.058647107 0.078215495 0.05165237 0.07225386 0.03304009 0.05177858 0.037940633
0.03963059 0.09374528 0.06540568 0.058613498 0.03423963 0.09329237 0.025309296 0.08709799
0.06002492 0.07359252 0.029487234 0.07525633 0.07536656 0.07931273 0.08523077 0.06711109
0.047778036 0.08822563 0.039975014 0.043659415 0.054473855 0.044992898 0.047036238 0.046373475
0.02545116 0.07466669 0.066745356 0.069301926 0.06328409 0.07919234 0.0533637 0.09138687
0.039042916 0.029109877 0.05550028 0.09036118 0.037948977 0.03883541 0.07834034 0.07827847
0.031305604 0.04799744 0.06336394 0.029229026 0.067622826 0.08938951 0.033719223 0.05707029
-0.086201094 -0.025992388 -0.028986437 -0.095102124 -0.03008614 -0.05993756 -0.061534826 -0.032069054
0.055566855 0.04513284 0.078224674 0.09129305 0.079552054 0.08934598 0.05302042 0.0422625
0.08350098 0.071873635 0.039154943 0.047310997 0.03850777 0.052001502 0.08040594 0.026053641
0.08646162 0.042742755 -0.07337665 -0.044777945 -0.032131426 -0.090802 -0.07563556 -0.031346276
-0.06694482 -0.030619077 -0.037421647 -0.071167156 -0.05792582 0.0775622 0.074734725 0.09300609
0.08303705 0.05665781 0.09023115 0.05796047 0.08679457 0.07359011 0.037684757 0.03220543
0.02481448 0.06863831 0.09403678 0.070127726 -0.06559639 -0.054420017 -0.044702537 -0.035613842
-0.07143645 -0.078503355 -0.06695608 -0.07682714 -0.094068885 -0.052207347 -0.07213715 -0.045037054
-0.08020653 -0.04752846 0.09181837 0.07222554 0.06073774 0.025495881 0.02760928 0.09130637
0.028119387 0.079694316 0.037727434 0.037345085 0.06749976 0.028315382 0.082993515 0.047062334
-0.03392467 -0.026774485 -0.0683752 -0.08417362 -0.09469469 -0.095553786 -0.06278521 -0.0724974
-0.0727227 -0.06931336 -0.058915198 -0.027594978 -0.0950028 -0.030370034 -0.055476706 0.067384295
0.029320052 0.06367005 0.05322269 0.029410953 0.0465014 0.06273511 0.08003874 0.028791206

bias f4 [128]
00000000: e06b a6bd dcb9 febd b6ca 9abd 9949 74bd
00000010: c015 90bc cdc6 5cbd 2305 b5bd a2d6 bcbd
00000020: b4ba 74be 920b abbd 265a efbc 73d5 d2bd
00000030: 0e45 b9bd af6c a7bd 9a60 42be f270 59bd
00000040: fcd7 6ebd 7da9 02be f487 aebd 4417 b4be
00000050: db5a cebe 4c86 28bd 3827 19bd bfaf 88bd
00000060: 8001 25be 223c 82bd 6a7e 66bd 74ab 6ebd
00000070: 19b7 a6be 0302 8ebd 1956 3cbd 881d a7bd
00000080: 5d12 f1be 86ac a7bc a53f 65bd 6b6e 5dbd
00000090: 95ee 18bd 5790 55bd b3b1 67bd 61eb 14bb
000000a0: 5488 9bbd 81c8 f6bc df85 adbd f5c0 a2bd
000000b0: 3662 29bd b186 05bd 5395 10be 5690 a3bd
000000c0: 0e6f f0bc 76c4 50bc 2332 05be abb9 f3bc
000000d0: a7e9 bbbd b22d 28bd a48e b5bd 53e2 f1bc
000000e0: eaaf 53bd 073c 0fbe e745 93bd 5400 bdbd
000000f0: 5414 4cbd af00 42bd cd63 2abd 865a 8ebe
00000100: 83d2 a3be bec8 d3bd 502d 8bbd f9e9 46be
00000110: 531e 86bd 8f27 35bd c527 08bd 0635 fbbc
00000120: e03f a9bd 24f4 14bd 51cb 74bd de57 7dbb
00000130: 503f 91bd 6616 44be 87e5 5abd f4ae c1bd
00000140: d17b 09bf d23b aebd fa6e a2bd f0f7 30bd
00000150: 8573 8dbd 1a80 79bd 6899 80bd f06d cdbe
00000160: 7a27 29bd 8627 eabc 5f35 78bd b3a7 14be
00000170: 29bb aabd 8376 86bd e5ae 5ebd 9b0e efbc
00000180: 8cea 49bd 9d8c 8abd 5d47 ecbc 0449 d1bc
00000190: 70d5 babd 30c6 96bd b9ce 8abe aaba 1dbd
000001a0: c9e9 0fbd 1113 fdbc 24a3 babd 63c6 8b3c
000001b0: b490 32be d8f3 15be 584a 57bd b5ff 93bd
000001c0: 6441 09bd d058 41bd f498 b3bd 040f 3cbf
000001d0: 4b34 09bd fd5d 77bd d639 97bd 7e0f 04bd
000001e0: 7a4d c3bd 8cf6 9fbd 50ca 2cbe 942c 30be
000001f0: c12f 18bd fca4 24bd 63a5 a4bd 61ce 7dbd
-0.08126044 -0.124377936 -0.07558195 -0.0596405 -0.017588496 -0.05390053 -0.088388704 -0.092206255
-0.23899347 -0.08351816 -0.02921779 -0.102946185 -0.09046374 -0.081750266 -0.18982163 -0.05308623
-0.058311448 -0.12759967 -0.08522025 -0.35174 -0.40303692 -0.0411437 -0.037390918 -0.06674146
-0.16113853 -0.06359126 -0.0562729 -0.05826898 -0.32561567 -0.069339775 -0.045980547 -0.081599295
-0.47084323 -0.020468008 -0.0559689 -0.05406038 -0.037336905 -0.052139606 -0.05656595 -0.0022723305
-0.07594362 -0.030124905 -0.084727995 -0.0794696 -0.041353427 -0.032599155 -0.14119463 -0.07986514
-0.02934983 -0.012742152 -0.13007407 -0.02975162 -0.09175425 -0.041059203 -0.08865097 -0.029526865
-0.051681437 -0.13987742 -0.07191067 -0.09228578 -0.049824074 -0.047363933 -0.041599084 -0.2780344
-0.31996545 -0.10341023 -0.06795752 -0.19425191 -0.06548753 -0.04422718 -0.033241052 -0.030664932
-0.08264136 -0.036365643 -0.05976421 -0.003865711 -0.07092154 -0.1914917 -0.05344155 -0.09457198
-0.53704554 -0.085075036 -0.07931323 -0.0432052 -0.06906799 -0.060913183 -0.0627926 -0.40122938
-0.041297413 -0.0285833 -0.060597774 -0.14517097 -0.08336479 -0.06565573 -0.05436601 -0.02918177
-0.049295947 -0.06765101 -0.028842622 -0.025547512 -0.09122741 -0.0736202 -0.27110842 -0.038508095
-0.035135064 -0.03089288 -0.09113148 0.017062372 -0.17438012 -0.146438 -0.052561134 -0.072265066
-0.033509627 -0.04720384 -0.08769408 -0.7346041 -0.033497136 -0.06039237 -0.07384078 -0.032241337
-0.09536262 -0.07810697 -0.16874051 -0.17204505 -0.037154917 -0.040196404 -0.080393575 -0.061964396

weight f4 [10, 128]
00000000: 5847 08be fc2e 81be a119 df3d bb18 63bd
00000010: 17c4 583d 9a19 f6bd cbe8 13be 7fe7 27bd
00000020: 2b1b b03d e3c4 c9bc 9ecc bf3c c1cd c5bd
00000030: 43ce 5abb b03c b9bd 6391 2f3e 20b7 adbd
00000040: ab55 47bc c3aa 8e3d 311a 41bb 48fe a93e
00000050: 475a ba3e 4319 743b 68eb dbbc 5e96 91bd
00000060: ab65 9f3d 58e5 d6bc 1be0 d2bb c8ee 07be
00000070: f325 6d3d a6be e73b 78c8 3b3d 96eb 093e
00000080: e7af 90bd dcb4 b4bb 4828 6a3d 5598 0ebd
00000090: 0595 243d 00ce 79bc 5f2e 6cbd 3fec 4dbd
000000a0: 57c7 0abe 19b5 9c3c 4bd4 08bd 0da2 4cbd
000000b0: 80eb f33d 5a76 a0bd 0f44 283d a805 bb3d
000000c0: f4f9 fdbb c65f 7d3d 8408 f53c a56b d3bd
000000d0: 7906 fdba 2146 87bc 0e5c dd3d e3e4 95bb
000000e0: c76c febd 850f ebbc a590 07bc 82e4 e9bd
000000f0: ce4b d4bc 97d4 e03c de47 843c 45f6 10be
00000100: 2b6f 143e 95fb 753b 0e47 a33c 3c2f 013e
00000110: 33ee a1bd 8340 bbbd 2857 ccbd 6bfa 63bc
00000120: a268 b8bc b63f c03d 7bea c03c fedc 1c3d
00000130: c792 01be 3309 213e 6089 403c 2a1e 30bd
00000140: 4483 5fc0 d9ff 67bb 914e 78bc ed99 7bbd
00000150: f013 01be 5334 e2bd 04bc 0abe 37f0 b83e
00000160: 7dbe 32bc 0b84 893d 81e9 9dbb 4a99 bdbd
00000170: 1efc 09bd ce2d b93b 5652 083e ec02 a5bd
00000180: 6f67 0f3e 59ad 78bd 9241 24bc d4cd 103e
00000190: 37a3 23be fb2e 1dbd ea2a 143e 247d 88bd
000001a0: f920 ad3d 9582 91bb 023b ba3c 15a3 683d
000001b0: c021 95bd 5e4b 48bf 6ce6 19bd 6872 f43d
000001c0: 37b4 383c 10ca 173d 6ae0 5abd 2770 dabf
000001d0: 7879 983c 7ea9 5abd 60cd ecbd 43aa b33c
000001e0: 1bc1 b6bd 7119 d1bc 352d 81bd b0e7 5d3c
000001f0: acb7 ab3b ad04 c3bc 8e62 10bd fb65 8fbc
00000200: 4b17 8dbc 2dcf 3b3c 9ddb 07bd 7ee5 b9bd
00000210: e010 4c3b 641e a2bc ab0a e1bd 7486 90bc
00000220: b194 56bd 49c9 06be 34b3 45bd d303 8c3b
00000230: 82e5 983c 50c2 1d3c 5e8f 63bd 42be 11bd
00000240: 68a3 ebbc f014 663a d16a 89bd 59d1 9abf
00000250: 5288 93be 9680 b1bc 9b9b 3cbc cbd3 5ebd
00000260: 8e6b a73d 6c9c 9bbd 5887 e33c 2a45 59bd
00000270: 8065 94bc a9ba 89bd a360 f23c 111a 9bbd
00000280: 6757 6abd 8743 d43b 0ae1 073e 6a0d 96bd
00000290: 3ab5 c5bd e248 b4bd e20c 843b 3f91 35bd
000002a0: b364 ea3d fc5d f63c 81ec dc3d 405a 07bd
000002b0: 3f42 00be 9522 c03c 58eb c9bd ba8d 6c3c
000002c0: 14d3 c9bc e8cc 8ebd 551d aebd cb54 093c
000002d0: 6d17 d4bb c16c 9c3d be72 3ebd 330d 453c
000002e0: d95e dd3b 2b4b 8e3d c05a c33d 5b82 2e3d
000002f0: d171 91bd 0048 213c b30a 95bd 9353 21be
00000300: 8c38 b23c da72 01bd bb2f ee3b cfa0 f33c
00000310: a9a2 b43b 7b07 29ba 6aff 29bc bc07 36bd
00000320: 1a35 df3d 3757 813d feb0 76bd c24a 093d
00000330: f571 6b3d ce25 703c a897 9e3d a908 bebc
00000340: 7a9d a23e 6318 d93c 79f7 a93d fb80 e5bb
00000350: a3a8 c3bc fdb4 ecbc 5683 243d d20a 2cbf
00000360: 531b bf3c 4046 023d 35f0 0b3e ea43 873b
00000370: bb27 b23d ad79 023e e4e2 06bd a167 d33d
00000380: 10c1 79bd 2532 cebc 54e2 a23c bc96 323d
00000390: 32b1 a53d 6e72 d73b 1123 9fbd 2075 89bc
000003a0: 6e3d 853d 2e83 4cbc 8707 163c 820b 543c
000003b0: ed85 90be 2ea2 af3e 56da 113e 23bf 873d
000003c0: 76b2 04be 4a63 aebd c9ba a2bc 6b64 ad3e
000003d0: 92f8 a9bd 390c db3c 375b 70bd 22d3 903d
000003e0: 7e47 babd a236 8d3d da0a 353c af9e 78bd
000003f0: 131c c3bd ccf7 11be 902e d93c 2bef c1bc
-0.13308465 -0.2523116 0.1089356 -0.055443507 0.05292138 -0.12016602 -0.14444272 -0.040992256
0.08598932 -0.024630016 0.023412999 -0.09658385 -0.0033387102 -0.09044778 0.17145304 -0.08482194
-0.012166421 0.06966164 -0.0029465074 0.33201814 0.36397 0.0037246502 -0.026845649 -0.071087584
0.077830635 -0.026232406 -0.006435407 -0.13274682 0.05789752 0.0070722876 0.04584548 0.13468775
-0.07064801 -0.005514724 0.05716732 -0.034813244 0.04018118 -0.015246868 -0.05766141 -0.05027413
-0.13552605 0.019129323 -0.033405583 -0.04995923 0.119101524 -0.07835074 0.04108053 0.09131938
-0.007750744 0.061858915 0.029911287 -0.10323266 -0.0019304297 -0.016512932 0.10808574 -0.0045744046
-0.124230914 -0.028693924 -0.008274232 -0.114205375 -0.025915053 0.02744512 0.01614755 -0.14156444
0.14495532 0.0037533988 0.019931342 0.12615675 -0.07906761 -0.09143164 -0.09977561 -0.013914685
-0.02251083 0.09387152 0.023549309 0.038296692 -0.12653647 0.15726165 0.011751503 -0.042997517
-3.4923868 -0.00354003 -0.01515545 -0.061426092 -0.12605262 -0.11045136 -0.13548285 0.3612077
-0.010909674 0.06714638 -0.0048190956 -0.09257753 -0.033687703 0.0056512123 0.13312659 -0.08057198
0.140043 -0.060712192 -0.010025399 0.14141017 -0.1598023 -0.038374882 0.14469495 -0.06664494
0.08453555 -0.0044406154 0.022733215 0.056796152 -0.07281828 -0.7824 -0.037573263 0.11935884
0.011273435 0.037057936 -0.053436674 -1.7065476 0.018612608 -0.053384297 -0.1156261 0.021931773
-0.08923551 -0.025524827 -0.06307451 0.013544008 0.0052404013 -0.02380594 -0.03525024 -0.017504683
-0.017223021 0.011462969 -0.033168424 -0.09076975 0.0031137988 -0.019789882 -0.10988363 -0.017642237
-0.052387897 -0.13162722 -0.048266605 0.004272917 0.018664125 0.009628847 -0.055556647 -0.035581835
-0.028764442 0.00087769236 -0.06709827 -1.2095138 -0.28814942 -0.02166776 -0.011511709 -0.0544012
0.08174811 -0.075981945 0.027774498 -0.053044476 -0.018114805 -0.06725056 0.029587096 -0.07573331
-0.05721226 0.0064777764 0.1326944 -0.07326777 -0.09653707 -0.08802964 0.004029856 -0.04432797
0.11444988 0.030074112 0.10787297 -0.033045053 -0.12525271 0.02345399 -0.098593414 0.014438087
-0.024636783 -0.069726765 -0.085016884 0.008382033 -0.006472519 0.07637931 -0.046496145 0.012027073
0.0067556915 0.06947931 0.095387936 0.042604785 -0.07101787 0.009843826 -0.07277431 -0.15754537
0.02175548 -0.03160367 0.0072688735 0.029739765 0.0055125547 -0.0006447953 -0.010375837 -0.04444097
0.108988 0.06315463 -0.060227387 0.03351856 0.057481725 0.014657451 0.0774377 -0.023197489
0.3176077 0.026500886 0.08299155 -0.007003901 -0.023884123 -0.028894896 0.040164314 -0.6720401
0.023328459 0.031805277 0.1366585 0.004127969 0.08698984 0.12741728 -0.032931224 0.103225
-0.060975134 -0.025170395 0.019883312 0.043600783 0.08090438 0.0065749204 -0.0777036 -0.016779482
0.065058574 -0.012482448 0.009157068 0.012942197 -0.28227177 0.3430342 0.14243445 0.06628253
-0.12958702 -0.08515032 -0.019864457 0.33865675 -0.08299364 0.026739227 -0.05868074 0.070715204
-0.09095667 0.06895186 0.0110499505 -0.060698207 -0.09526839 -0.14254683 0.02651146 -0.023673614

bias f4 [10]
00000000: 39d0 803f 38f6 403e d2d7 ccbe cb7a 56bf
00000010: 495e 663f 0c28 6f3e 83b2 0f3e af7a 35c0
00000020: 427e f13f 4229 95bd
1.0063545 0.18843925 -0.40008408 -0.8378112 0.8998762 0.2335512 0.1403294 -2.835613
1.8866656 -0.0728326
